…
_network.py
2023-11-13 00:36:07.500065: I tensorflow/core/platform/cpu_feature_guard.cc:182] This TensorFlow binary is optimized to use available CPU instructions in performance-critical operations.
To enable the following instructions: SSE SSE2 SSE3 SSE4.1 SSE4.2 AVX AVX2 FMA, in other operations, rebuild TensorFlow with the appropriate compiler flags.
Model: "sequential"
_________________________________________________________________
 Layer (type)                Output Shape              Param #
=================================================================
 rescaling (Rescaling)       (None, 128, 128, 3)       0

 conv2d (Conv2D)             (None, 126, 126, 32)      896

 max_pooling2d (MaxPooling2  (None, 63, 63, 32)        0
 D)

 batch_normalization (Batch  (None, 63, 63, 32)        128
 Normalization)

 conv2d_1 (Conv2D)           (None, 61, 61, 32)        9248

 max_pooling2d_1 (MaxPoolin  (None, 30, 30, 32)        0
 g2D)

 batch_normalization_1 (Bat  (None, 30, 30, 32)        128
 chNormalization)

 conv2d_2 (Conv2D)           (None, 28, 28, 32)        9248

 max_pooling2d_2 (MaxPoolin  (None, 14, 14, 32)        0
 g2D)

 batch_normalization_2 (Bat  (None, 14, 14, 32)        128
 chNormalization)

 flatten (Flatten)           (None, 6272)              0

 dense (Dense)               (None, 128)               802944

 dense_1 (Dense)             (None, 2)                 258

=================================================================
Total params: 822978 (3.14 MB)
Trainable params: 822786 (3.14 MB)
Non-trainable params: 192 (768.00 Byte)
_________________________________________________________________
For image: NN\training_dataset_M1\0\SBER-M1-01_02_2022_09_30.png Predicted: [[ 0.04315092 -0.04315083]] => class=0
For image: NN\training_dataset_M1\0\SBER-M1-01_02_2022_17_30.png Predicted: [[-0.82547575 -1.7373412 ]] => class=0
…
